model.tflite (tflite, 147972 bytes, 6 tensors)

sequential_3/conv2d_9/Relu;sequential_3/conv2d_9/BiasAdd;sequential_3/conv2d_10/BiasAdd/ReadVariableOp/resource;sequential_3/conv2d_9/Conv2D f4 [32, 3, 3, 3]
0.00013035344 0.0005069647 -0.00021386142 0.0003813814 -8.5903186e-05 0.00021263129 0.00023060174 -0.00032411976
-0.00013226204 -0.00029215027 -0.00025598638 -0.00022658012 0.0001699716 0.00045167145 -5.82125e-05 0.0003744752
-0.00024397415 -0.0005160285 -0.00023947444 1.4159668e-05 0.00027980912 1.3694344e-05 -0.00033725772 -4.3161654e-05
0.00022197513 0.00030779946 0.00012413831 -0.00027470925 -6.4800566e-05 -0.0004169972 0.00040521252 0.0001379556
0.00012635128 -0.00032230574 3.4677985e-05 -0.0001583311 0.0002687248 8.231472e-05 -0.00045712173 -0.0003840678
0.00022717213 0.00018524937 -0.00025152214 0.00043563623 -0.0003302685 -0.00027509328 -0.00014805021 0.0002166626
0.000488888 0.00034084613 -9.3463714e-05 0.00034346362 0.00033638917 -0.00022061 -0.00014167116 -0.00025812958
0.00042981852 -2.4274403e-05 -0.00048671587 -0.00014111398 0.0003227704 0.0002622617 4.3831915e-05 -0.0003347893
-2.1319765e-05 -6.401744e-05 0.0005125784 -0.00017953683 0.00031002605 0.00024277394 0.00024229009 -0.00039222423
-0.0001333426 2.5641044e-05 0.0001928419 0.00043290475 -0.00044239592 -0.0001873664 0.00025994066 0.0004904153
-9.914284e-05 7.7048535e-05 0.00024948543 0.0003905293 -0.00026701635 -0.00051086827 -0.00044285788 0.00030877008
-0.00047901573 0.00052844296 -0.0003362591 0.00013816504 0.00027313005 0.0004484369 -0.00020061647 -6.694648e-05
-0.00020300265 -0.00045313197 0.00050035503 0.0005210491 0.00019967422 -0.00043140026 0.00025087953 -0.00042864494
-0.00020697241 -0.0004040899 -0.0002606154 0.00048243717 0.0005047222 -0.00015836478 0.00017425735 -0.00033675344
-0.00042185374 -0.00024903388 -0.00018941952 0.00014152317 -0.00033739218 0.00026394072 -8.87001e-05 0.00021868116
0.0005183236 -5.7771307e-05 -0.0003942225 0.0003080845 0.00050191843 -8.653987e-05 -0.00035557398 0.0004953009
2.522013e-05 -0.0002162094 0.00025487976 0.0001611261 0.00045646098 -0.00047285814 0.00044160517 -0.00041245867
0.00048204727 -8.244302e-05 -0.00038096585 -0.00025756712 -0.00049053493 -0.0004136465 0.00024354664 -9.385395e-06
-0.00022349712 -0.00016651295 0.00023212195 0.00054094987 0.00040922564 0.00017113832 0.00051735697 0.00013511007
-0.00037431082 3.4815308e-05 5.4791573e-05 0.00015881524 -0.00019141535 0.00028876998 -0.000109084365 -0.00044166725
0.00016086594 -0.00040489403 0.00031966108 0.00021746663 0.00025915465 0.00044682712 0.00010727779 -1.4411937e-05
0.0003350371 0.00032447503 8.767902e-05 0.00046217508 0.00043210623 5.9337595e-05 -0.00049933273 0.00036120837
5.2084586e-05 -0.00029224603 -0.00041828907 0.00031868232 0.00031789244 -0.00012457071 0.0004506597 0.00011593478
-0.0003328157 0.0004823327 0.00053738564 -9.336577e-05 -0.0002942384 -0.00036240052 0.0003953315 -0.00033288694
-0.0005277209 -5.9299614e-06 -0.00027874598 6.4026084e-05 0.00017275583 0.00010161418 -9.1115635e-06 0.00020316846
-0.00033041416 0.00043936507 -0.00044392623 0.00014960037 -0.00021297103 -0.00036993794 0.0002681595 -0.00023560353
-0.00010389777 -0.00042438883 0.00050899066 -0.0002659344 -0.0004964471 -9.8599965e-05 1.0304533e-05 0.0004315861
-0.00021533696 -0.0002371649 -0.00044402416 -0.00041677066 -0.00037790043 -7.385872e-05 0.00030382688 -0.00028779366
-2.7193393e-05 -7.41431e-05 -9.512998e-05 8.350138e-05 3.5786983e-05 0.0004197749 -0.00010945237 -5.5672113e-05
-0.0005379133 0.00047218247 0.00015216914 1.4194087e-06 0.0005117119 -0.0004853857 -0.0004221815 -0.00018809314
0.00011028169 -0.0005360913 -0.00034975563 -0.00026197947 0.00011223368 -0.000514377 -2.5306965e-05 0.00038683854
0.00037910923 0.00038433884 -0.00044237284 -0.0003165435 0.00048468425 0.00026216244 -5.034033e-05 -0.00017426365
00000000: 7caf 0839 d3e5 043a fd3f 60b9 25f4 c739
00000010: ec26 b4b8 c7f5 5e39 afcd 7139 9eee a9b9
00000020: d2af 0ab9 bf2b 99b9 e935 86b9 2396 6db9
00000030: 673a 3239 51ce ec39 3229 74b8 3655 c439
00000040: 50d3 7fb9 1646 07ba 6e1b 7bb9 508f 6d37
00000050: 58b3 9239 c2c0 6537 f7d1 b0b9 7908 35b8
00000060: ffc1 6839 2560 a139 202b 0239 da06 90b9
00000070: 8ae5 87b8 6ba0 dab9 b472 d439 2da8 1039
00000080: 2a7d 0439 25fb a8b9 3473 1138 ae05 26b9
00000090: a2e3 8c39 61a0 ac38 d7a9 efb9 b55c c9b9
000000a0: 0e35 6e39 803f 4239 bbde 83b9 1b66 e439
000000b0: e327 adb9 653a 90b9 ed3d 1bb9 ed2f 6339
000000c0: b828 003a 98b3 b239 f301 c4b8 e812 b439
000000d0: 645d b039 8c53 67b9 908d 14b9 9155 87b9
000000e0: 4459 e139 e2a0 cbb7 e62d ffb9 fff7 13b9
000000f0: 8239 a939 2b80 8939 29d8 3738 a986 afb9
00000100: d9d7 b2b7 1a41 86b8 8e5e 063a 0d42 3cb9
00000110: fe8a a239 2291 7e39 400f 7e39 72a3 cdb9
00000120: e2d1 0bb9 b917 d737 9a35 4a39 7ef7 e239
00000130: 60f1 e7b9 c977 44b9 a548 8839 378f 003a
00000140: e8ea cfb8 1e95 a138 5ecd 8239 f5bf cc39
00000150: 54fe 8bb9 caeb 05ba 612f e8b9 6be2 a139
00000160: 6724 fbb9 3587 0a3a ef4b b0b9 65e0 1039
00000170: e532 8f39 2f1c eb39 935c 52b9 9e65 8cb8
00000180: 1cdd 54b9 5892 edb9 422a 033a 0397 083a
00000190: a45f 5139 902d e2b9 7b88 8339 c0bb e0b9
000001a0: bc06 59b9 07dc d3b9 35a3 88b9 9fef fc39
000001b0: 554f 043a b90e 26b9 dab8 3639 488e b0b9
000001c0: 402c ddb9 c390 82b9 ea9e 46b9 d665 1439
000001d0: 03e4 b0b9 8661 8a39 8104 bab8 c74d 6539
000001e0: 1ce0 073a 784f 72b8 a6af ceb9 6786 a139
000001f0: 2d93 033a bd7c b5b8 556c bab9 15d7 013a
00000200: d18f d337 45b6 62b9 62a1 8539 f5f3 2839
00000210: 2851 ef39 f2e9 f7b9 3e87 e739 443f d8b9
00000220: 4abb fc39 42e5 acb8 5fbc c7b9 130a 87b9
00000230: 3e97 00ba b2de d8b9 8e60 7f39 f775 1db7
00000240: 8d5a 6ab9 fb99 2eb9 c365 7339 88ce 0d3a
00000250: 568d d639 9873 3339 3d9f 073a 55ac 0d39
00000260: 263f c4b9 a706 1238 01d0 6538 a487 2639
00000270: abb6 48b9 0d66 9739 39c4 e4b8 938f e7b9
00000280: 1fae 2839 f547 d4b9 2f98 a739 c107 6439
00000290: 26df 8739 1f44 ea39 53fa e038 ccca 71b7
000002a0: eba7 af39 4d1e aa39 51e0 b738 1750 f239
000002b0: 518c e239 42e1 7838 a7e5 02ba 9160 bd39
000002c0: 6675 5a38 9938 99b9 cf4d dbb9 d114 a739
000002d0: cdaa a639 329f 02b9 8546 ec39 0322 f338
000002e0: c47d aeb9 99e1 fc39 57df 0c3a 5ecd c3b8
000002f0: 0244 9ab9 9300 beb9 7f44 cf39 5487 aeb9
00000300: c056 0aba fbf9 c6b6 a724 92b9 be45 8638
00000310: ca25 3539 b319 d538 dedd 18b7 9e09 5539
00000320: 703b adb9 955a e639 c5be e8b9 0bde 1c39
00000330: fa50 5fb9 3bf4 c1b9 c297 8c39 570c 77b9
00000340: b1e3 d9b8 8180 deb9 c96d 053a 1c6d 8bb9
00000350: 0024 02ba 74c7 ceb8 a2e1 2c37 8146 e239
00000360: 13cc 61b9 78af 78b9 eacb e8b9 0382 dab9
00000370: f020 c6b9 99e4 9ab8 f44a 9f39 03e3 96b9
00000380: 5e1d e4b7 467d 9bb8 8580 c7b8 761d af38
00000390: fb19 1638 3c15 dc39 cb89 e5b8 7a81 69b8
000003a0: c002 0dba 428f f739 988f 1f39 8382 be35
000003b0: 6824 063a 5e7b feb9 3e58 ddb9 de3a 45b9
000003c0: 0847 e738 7a88 0cba 685f b7b9 4a5a 89b9
000003d0: 005f eb38 42d7 06ba 4b4a d4b7 97d0 ca39
000003e0: 2ec3 c639 1681 c939 47ee e7b9 c0f5 a5b9
000003f0: 381d fe39 d972 8939 8524 53b8 8bba 36b9

sequential_3/conv2d_10/BiasAdd/ReadVariableOp/resource f4 [32]
0.0 0.0 0.0 0.0 0.0 0.0 0.0 0.0
0.0 0.0 0.0 0.0 0.0 0.0 0.0 0.0
0.0 0.0 0.0 0.0 0.0 0.0 0.0 0.0
0.0 0.0 0.0 0.0 0.0 0.0 0.0 0.0
00000000: 0000 0000 0000 0000 0000 0000 0000 0000
00000010: 0000 0000 0000 0000 0000 0000 0000 0000
00000020: 0000 0000 0000 0000 0000 0000 0000 0000
00000030: 0000 0000 0000 0000 0000 0000 0000 0000
00000040: 0000 0000 0000 0000 0000 0000 0000 0000
00000050: 0000 0000 0000 0000 0000 0000 0000 0000
00000060: 0000 0000 0000 0000 0000 0000 0000 0000
00000070: 0000 0000 0000 0000 0000 0000 0000 0000

sequential_3/conv2d_10/Conv2D f4 [32, 3, 3, 32]
-0.06052587 -0.07429242 -0.028435148 0.038516194 0.10006043 -0.012256831 0.011799753 -0.08060604
-0.09671277 -0.042129967 0.03534718 -0.0021476 -0.018370569 0.0184327 -0.05416237 -0.0873518
0.032127485 0.026946396 -0.08263217 0.010414392 -0.07266267 -0.096344605 -0.030676164 0.10108918
0.035216168 0.05636151 0.08861154 0.074750155 -0.09128667 -0.047823057 -0.044041608 0.073402554
-0.09765078 -0.014619492 -0.087465584 -0.012284689 -0.08736199 -0.009758413 0.021000199 -0.09358034
0.062596306 0.074855834 0.08518164 0.06478429 0.06539513 -0.07971767 -0.09115264 0.02199614
0.057647675 -0.08234107 0.016757235 0.034599707 -0.005166903 0.055982366 -0.060845174 0.07262334
-0.070837334 -0.030049868 -0.009408303 0.021989033 0.097831264 0.07130575 -0.059890814 0.0034608543
0.038226336 -0.047245428 0.10096264 -0.037572592 0.059068203 0.015449777 0.06970094 0.072876066
0.09208077 0.07845713 0.07931924 -0.008612156 0.039181277 0.027350724 0.033742383 0.08552055
0.033479795 -0.03603401 0.05638288 0.03980826 0.057810307 0.033755884 0.0836215 0.028167754
-0.043558806 0.05007811 0.009407692 0.0015287027 -0.05861647 -0.085487075 -0.038481355 0.053429246
0.058877185 -0.03909018 -0.019629024 0.024777949 0.08531687 -0.031496592 0.08603202 0.060107097
0.09320709 0.09907843 -0.09331834 0.044652015 0.056207865 -0.05606958 -0.0369929 -0.05813345
0.10067086 0.09175399 -0.01604823 0.019907333 0.044954017 -0.0053392574 0.08911537 -0.001957655
0.07410489 -0.07398227 -0.08862388 0.0015040562 -0.09901173 0.05649644 0.087446064 -0.008091718
-0.0064634606 0.029780835 0.066098124 -0.042253144 -0.09998085 -0.06827587 -0.053788852 -0.07143455
0.045877084 0.004131295 -0.0037420988 0.06468439 -0.032241665 0.025639355 0.030662388 0.07127926
-0.090608984 -0.059372805 -0.06940664 -0.07573562 -0.10056155 0.091072455 0.08992502 -0.07926337
-0.065966256 0.045182317 -0.0417226 0.0016566515 0.047156125 -0.06331388 0.09648956 0.046916902
0.072573245 0.0045092404 0.07487281 -0.014659837 0.071003735 -0.05441617 0.03618768 -0.06447709
0.02162075 -0.09554243 -0.08252345 -0.033666342 -0.07832655 -0.080187164 0.08054912 0.07973407
-0.100406185 0.0007200986 0.013827458 -0.102052875 -0.029790036 0.08620277 -0.08372747 0.028196469
-0.09017725 0.06505971 -0.009751134 0.07069263 0.06927405 0.050475895 -0.012261353 0.032195017
-0.09064833 -0.04698041 0.05179754 0.005243987 0.04827568 -0.068004206 -0.06889803 -0.049043577
0.063496724 0.012697294 0.0044884086 0.033662423 0.049952775 -0.035238698 -0.00730066 0.09373543
-0.014780216 -0.045172967 0.08894172 -0.052063193 -0.02443713 0.012721963 0.09153418 0.04001324
0.06686497 -0.048784643 0.09823291 0.06488745 0.06019929 0.007374391 -0.020985983 0.093682155
0.086959615 0.052046597 -0.07874565 0.001826033 0.014122769 -0.05090268 -0.0869666 0.09468815
0.06556268 -0.06398115 0.014264926 0.053709954 0.06348412 -0.09684471 0.08414817 0.050513655
-0.09173866 -0.088741675 -0.035143383 -0.078664005 0.094545916 -0.063344106 0.045626596 0.06925905
-0.021364368 0.028107837 0.02144567 -0.07042761 -0.026985727 -0.0695399 0.008603595 0.05971366
00000000: fae9 77bd a026 98bd d4f0 e8bc 28c3 1d3d
00000010: 7cec cc3d e0d0 48bc c053 413c c814 a5bd
00000020: 5811 c6bd 7990 2cbd 34c8 103d c0be 0cbb
00000030: e07d 96bc 2c00 973c 5cd9 5dbd 80e5 b2bd
00000040: 1c98 033d b0be dc3c 0e3b a9bd 20a1 2a3c
00000050: 2ad0 94bd 5250 c5bd 944c fbbc d807 cf3d
00000060: d43e 103d 54db 663d f879 b53d 9c16 993d
00000070: 81f4 babd 1ce2 43bd f964 34bd 1454 963d
00000080: 22fd c7bd 9886 6fbc 2821 b3bd b845 49bc
00000090: d8ea b2bd c0e1 1fbc 9c08 ac3c 0da7 bfbd
000000a0: 7e32 803d 044e 993d b673 ae3d a0ad 843d
000000b0: e2ed 853d 0543 a3bd 3cae babd 4031 b43c
000000c0: f81f 6c3d 6fa2 a8bd 7846 893c 6cb8 0d3d
000000d0: 204f a9bb c44d 653d ca38 79bd 8cbb 943d
000000e0: 2a13 91bd 242b f6bc 4825 1abc 5822 b43c
000000f0: c25b c83d c008 923d 1250 75bd 80cf 623b
00000100: 3893 1c3d 6c84 41bd 80c5 ce3d b8e5 19bd
00000110: 80f1 713d 1021 7d3c 5ebf 8e3d 0c40 953d
00000120: d894 bc3d 22ae a03d 2072 a23d 001a 0dbc
00000130: 8c7c 203d a00e e03c 7435 0a3d 6625 af3d
00000140: 1c22 093d 6698 13bd bcf1 663d fc0d 233d
00000150: 80ca 6c3d 9c43 0a3d c041 ab3d 10c0 e63c
00000160: b86a 32bd b41e 4d3d b822 1a3c c05e c83a
00000170: d317 70bd d913 afbd a09e 1dbd a0d8 5a3d
00000180: 3429 713d 061d 20bd 0ccd a0bc 20fb ca3c
00000190: 9cba ae3d 9202 01bd 8e31 b03d dc32 763d
000001a0: 5ce3 be3d a2e9 ca3d b01d bfbd 08e5 363d
000001b0: 383a 663d 37a9 65bd de85 17bd 571d 6ebd
000001c0: 862c ce3d 84e9 bb3d 9477 83bc b414 a33c
000001d0: b421 383d f0f4 aebb 1e82 b63d 004c 00bb
000001e0: 4ec4 973d 0484 97bd 7080 b5bd c023 c53a
000001f0: a9c6 cabd d068 673d ec16 b33d 2093 04bc
00000200: 70cb d3bb f0f6 f33c 745e 873d a211 2dbd
00000210: c3c2 ccbd 38d4 8bbd b351 5cbd 474c 92bd
00000220: 9ce9 3b3d d05f 873b 003e 75bb 4079 843d
00000230: d60f 04bd a009 d23c b02f fb3c dcfa 913d
00000240: 3491 b9bd e630 73bd 1225 8ebd 471b 9bbd
00000250: 37f3 cdbd 3284 ba3d 9c2a b83d d554 a2bd
00000260: 5119 87bd 1811 393d 51e5 2abd 0024 d93a
00000270: c826 413d b5aa 81bd 529c c53d f02b 403d
00000280: 48a1 943d 40c2 933b ea56 993d d02f 70bc
00000290: 686a 913d 7de3 5ebd 8839 143d 910c 84bd
000002a0: 001e b13c c0ab c3bd 0e02 a9bd b8e5 09bd
000002b0: ac69 a0bd 2b39 a4bd f0f6 a43d 9e4b a33d
000002c0: c2a1 cdbd 00c5 3c3a 908c 623c 1901 d1bd
000002d0: 3c0a f4bc 148b b03d 4f79 abbd 48fc e63c
000002e0: daae b8bd 063e 853d 38c3 1fbc 4cc7 903d
000002f0: 8edf 8d3d d0bf 4e3d d8e3 48bc ecde 033d
00000300: d5a5 b9bd 886e 40bd a829 543d c0d5 ab3b
00000310: b8bc 453d ca45 8bbd 691a 8dbd ebe1 48bd
00000320: 920a 823d 5008 503c 8013 933b 9ce1 093d
00000330: 489b 4c3d 7456 10bd 603a efbb 5cf8 bf3d
00000340: b828 72bc 4a07 39bd 1427 b63d 3740 55bd
00000350: 6030 c8bc c86f 503c 4676 bb3d ece4 233d
00000360: 80f0 883d 68d2 47bd 562e c93d b6e3 843d
00000370: 8893 763d e0a4 f13b ccea abbc 6edc bf3d
00000380: e217 b23d d02e 553d 6645 a1bd 8057 ef3a
00000390: 3063 673c 547f 50bd 8b1b b2bd dceb c13d
000003a0: ba45 863d 8d08 83bd 70b7 693c f8fe 5b3d
000003b0: f603 823d 8556 c6bd e055 ac3d 68e7 4e3d
000003c0: 7be1 bbbd 32be b5bd 82f2 0fbd 981a a1bd
000003d0: 4aa1 c13d 8eba 81bd f4e2 3a3d b0d7 8d3d
000003e0: 5404 afbc 6842 e63c d4ae af3c 5a3c 90bd
000003f0: 2c11 ddbc ef6a 8ebd 18f6 0c3c 5096 743d

sequential_3/conv2d_11/Conv2D f4 [32, 3, 3, 32]
0.027488887 -0.022545442 -0.06403778 0.06243208 0.048466727 0.0050227493 -0.06701177 0.0021061152
-0.0064939037 0.017852053 0.006981574 0.023479417 0.094507575 0.02354531 0.10081011 0.072057754
-0.05171688 -0.08160961 0.07670726 -0.002445154 -0.042467255 -0.04793482 -0.05160443 -0.09132091
-0.043300726 0.036738902 -0.055221315 0.048896432 -0.03799507 -0.08776311 -0.05942894 0.059109703
-0.034912772 -0.015682451 0.096633986 -0.026948541 0.043902367 -0.010335095 0.012539513 -0.080298685
0.014209524 0.07351865 0.06354262 0.07773505 0.07648522 0.021777697 -0.080204345 0.061240762
0.044788495 0.09888059 0.07956691 -0.09444223 -0.06825334 0.08975457 -0.02857504 -0.05761673
0.048661217 -0.003301032 0.015872687 -0.0852872 0.065057844 -0.09114989 0.071036875 0.012453809
-0.020533577 0.08326377 0.059845626 -0.0042375103 -0.030665778 -0.041944694 0.033199012 -0.06167519
-0.012112655 0.013350405 0.052368626 0.012288004 0.0029485598 0.04857993 0.07248831 -0.0948825
0.00784222 0.10133594 -0.041538518 0.056310892 -0.026155367 -0.01862242 0.06627984 -0.00029426813
0.02572827 0.07570882 0.05501069 -0.056550898 -0.059857406 0.008041538 -0.028149545 -0.024552815
0.06331892 -0.09453626 -0.03427446 0.03724353 0.06058529 -0.081672676 0.00059006363 -0.060770348
-0.04654759 0.03373611 0.086664006 -0.021793224 0.055160776 0.058917135 -0.028950803 0.071612656
0.030985683 0.07768434 0.053900123 -0.064810365 0.051283687 0.039447248 0.09966761 0.002286397
-0.05938529 0.06534417 -0.03748548 -0.07086685 0.0057144016 0.10183939 0.08571914 -0.04613762
0.029109553 0.08040777 -0.023054525 0.00886856 -0.045805566 0.035894394 -0.011418588 0.05480282
0.0101915 -0.05575327 0.051025957 0.059283257 0.031056032 -0.04134711 -0.029068135 0.09622681
0.0106230825 0.08742426 -0.020528853 0.054167405 -0.056586158 -0.041951604 -0.057289563 -0.014633462
0.031640545 0.0071942434 -0.031962797 -0.07970324 -0.023102805 0.09087242 -0.04967252 -0.037234165
0.079921976 0.026651695 -0.056557782 -0.0007708594 -0.013506576 -0.018772878 0.000429146 0.07702011
0.036253422 -0.07772992 -0.015805945 -0.010798715 -0.0171967 0.067220524 -0.017734542 0.04013747
-0.06190716 0.03245932 -0.060400456 -0.07512991 0.057182103 -0.021940514 0.070572585 -0.005674228
-0.00025803596 0.03811772 -0.05719873 -0.024387881 0.08142795 -0.05624364 0.03323844 0.06430805
0.04699509 -0.08500634 0.0945576 0.06644565 -0.028825797 0.030238584 -0.08034689 0.036347553
0.03508997 -0.051977124 -0.014944121 -0.019691832 0.032918394 -0.0153438 0.0027719513 0.09678127
0.10067056 0.081631064 -0.08139306 -0.028373778 -0.07312904 0.077749655 0.061915755 -0.09533148
0.031792715 0.05140762 -0.045083348 -0.07316461 0.089200854 0.012302749 -0.011606492 0.005922526
-0.09015601 0.027876481 -0.04495657 -0.013253771 -0.048507024 -0.012287296 0.10127039 -0.039679438
0.012196898 0.034572035 0.07431014 -0.024954684 0.011067092 -0.04840353 0.041203663 0.025472447
-0.056857668 -0.03596347 0.08269945 -0.079395816 0.09857857 -0.0035064295 0.009166181 -0.07546963
0.040529802 -0.06607899 -0.053200003 -0.017311454 -0.031379357 0.0897304 -0.032144353 0.101868406
00000000: 6030 e13c 38b1 b8bc 3d26 83bd c8b8 7f3d
00000010: 0c85 463d e095 a43b 783d 89bd c006 0a3b
00000020: d0ca d4bb 783e 923c b0c5 e43b e857 c03c
00000030: 308d c13d 18e2 c03c 8875 ce3d 0493 933d
00000040: 14d5 53bd f022 a7bd b218 9d3d e03e 20bb
00000050: 25f2 2dbd 4d57 44bd 2b5f 53bd 7506 bbbd
00000060: 1a5c 31bd 887b 163d bf2f 62bd a047 483d
00000070: b8a0 1bbd 25bd b3bd c36b 73bd 041d 723d
00000080: b200 0fbd 7c78 80bc 0ae8 c53d 30c3 dcbc
00000090: f8d2 333d 8854 29bc 8872 4d3c a373 a4bd
000000a0: 10cf 683c f290 963d a222 823d 8e33 9f3d
000000b0: 48a4 9c3d 2467 b23c 2d42 a4bd 98d7 7a3d
000000c0: 2474 373d e881 ca3d faf3 a23d ee6a c1bd
000000d0: 68c8 8bbd 3ed1 b73d 3416 eabc 85ff 6bbd
000000e0: fc50 473d 2056 58bb 7007 823c 0eab aebd
000000f0: 0c3d 853d cbac babd c87b 913d 100b 4c3c
00000100: 0836 a8bc 3286 aa3d b020 753d d0da 8abb
00000110: cc36 fbbc 33ce 2bbd b0fb 073d 209f 7cbd
00000120: 2874 46bc a8bb 5a3c 7c80 563d a053 493c
00000130: a03c 413b c0fb 463d c074 943d c251 c2bd
00000140: a87c 003c 3889 cf3d 4b24 2abd 40a6 663d
00000150: c843 d6bc 0c8e 98bc babd 873d 0048 9ab9
00000160: 18c4 d23c 3a0d 9b3d e452 613d eaa1 67bd
00000170: 0a2d 75bd a8c0 033c e099 e6bc fc22 c9bc
00000180: 5aad 813d 3a9c c1bd 6063 0cbd ac8c 183d
00000190: 4828 783d 0144 a7bd 80ae 1a3a 54ea 78bd
000001a0: b0a8 3ebd e02e 0a3d e67c b13d b487 b2bc
000001b0: 44f0 613d 1853 713d 3c2a edbc a8a9 923d
000001c0: b0d5 fd3c f818 9f3d 60c6 5c3d 4cbb 84bd
000001d0: d80e 523d 7093 213d 881e cc3d 60d7 153b
000001e0: fd3d 73bd 2ad3 853d 608a 19bd a422 91bd
000001f0: e03f bb3b 2c91 d03d 848d af3d cdfa 3cbd
00000200: 2877 ee3c d4ac a43d d8dc bcbc 704d 113c
00000210: 9e9e 3bbd 0006 133d 0815 3bbc ec78 603d
00000220: 40fa 263c 8a5d 64bd 9800 513d 00d3 723d
00000230: 3869 fe3c 965b 29bd 4c20 eebc 9012 c53d
00000240: 700c 2e3c 7e0b b33d 202c a8bc a4de 5d3d
00000250: e3c6 67bd 72d5 2bbd 76a8 6abd 30c1 6fbc
00000260: 8499 013d b0bd eb3b 6ceb 02bd 743b a3bd
00000270: 1842 bdbc 521b ba3d 6a75 4bbd da82 18bd
00000280: 22ae a33d a854 da3c 22a9 67bd 8013 4aba
00000290: b04a 5dbc 94c9 99bc 00ff e039 b8bc 9d3d
000002a0: 787e 143d dd30 9fbd 787b 81bc 18ed 30bc
000002b0: 18e0 8cbc eaaa 893d 0848 91bc 3067 243d
000002c0: 5d92 7dbd 10f4 043d 7866 77bd b6dd 99bd
000002d0: c837 6a3d 98bc b3bc 5c88 903d e0ee b9bb
000002e0: 0049 87b9 5421 1c3d 3749 6abd 18c9 c7bc
000002f0: b2c3 a63d bb5f 66bd 0825 083d f0b3 833d
00000300: ec7d 403d ce17 aebd 6aa7 c13d a814 883d
00000310: 1424 ecbc e8b6 f73c e98c a4bd 2ce1 143d
00000320: 80ba 0f3d f7e5 54bd 30d8 74bc c450 a1bc
00000330: 70d5 063d 9064 7bbc a0a9 353b 4235 c63d
00000340: 5e2c ce3d 302e a73d 68b1 a6bd 2070 e8bc
00000350: aec4 95bd 363b 9f3d 609b 7d3d 273d c3bd
00000360: 1439 023d cc90 523d 51a9 38bd 54d7 95bd
00000370: f0ae b63d 7891 493c 2829 3ebc c011 c23b
00000380: b7a3 b8bd 385d e43c 6124 38bd 5826 59bc
00000390: 4daf 46bd a850 49bc da66 cf3d e886 22bd
000003a0: 80d5 473c 689b 0d3d ea2f 983d c46d ccbc
000003b0: c052 353c c842 46bd 2cc5 283d 98ab d03c
000003c0: 96e3 68bd 6e4e 13bd 545e a93d 469a a2bd
000003d0: 90e3 c93d 20cc 65bb c02d 163c d28f 9abd
000003e0: 9402 263d 6c54 87bd 3fe8 59bd c0d0 8dbc
000003f0: a487 00bd 92c4 b73d cca9 03bd 62a0 d03d

sequential_3/dense_6/MatMul1 f4 [128, 128]
0.030429408 0.12422134 0.027259514 0.07939011 0.06479688 -0.057835802 -0.089720406 -0.0040640533
0.060173973 -0.13464016 -0.0792298 -0.14697509 0.098592475 -0.0224801 -0.06130033 -0.08520766
0.054241255 0.1240447 -0.07568844 -0.12372881 0.077284634 0.06391758 -0.071525544 -0.03410258
-0.06749114 -0.1340427 0.11769922 0.12155728 0.026717737 -0.05039928 0.12363316 -0.009070829
-0.11814479 0.03237717 0.06793061 -0.060347162 0.02872777 0.12452446 0.0171922 -0.03826981
0.13647656 -0.08716499 -0.13248691 0.07913001 -0.14863618 -0.06333559 0.05418016 -0.07092143
-0.14444475 0.14792894 -0.017548263 -0.094602935 0.02478315 0.09380902 -0.14768061 -0.036790855
0.002123654 -0.026408508 0.031165838 0.077996135 -0.023629934 -0.14526874 -0.100370735 -0.120583445
-0.12823923 0.07788202 -0.13677378 -0.006580189 0.05338259 0.053199798 0.02315481 0.053734496
-0.060788162 0.004260242 0.08501665 -0.15152784 0.098229006 -0.12538537 -0.00051896274 -0.115424246
0.01322633 -0.07256113 0.01971969 -0.003480956 0.113793865 -0.14100325 -0.05215527 -0.11235067
0.10243444 -0.076252624 -0.060644753 0.14903904 -0.0073076338 0.04022239 0.13108413 0.10272698
0.046598077 -0.041054234 0.05545087 0.12304233 -0.037696943 0.14447044 -0.064047046 0.07400566
-0.04600002 -0.039506257 0.094838694 -0.031890847 -0.10197967 -0.13901493 -0.10944995 -0.12913063
0.03716962 -0.12960207 0.050221667 -0.098856345 0.15233614 -0.107287355 -0.031095617 0.122635916
-0.09126192 0.099677935 -0.07277634 -0.028027728 -0.096623115 0.055903733 0.022634745 -0.11563288
-0.035940953 -0.14765349 -0.109081045 0.14673375 -0.11947778 -0.008800507 0.02299343 0.07663149
0.08800468 0.099399254 -0.038109213 0.017084673 -0.10937622 0.08264282 -0.11455517 -0.12544326
0.069612026 0.107691124 -0.0689083 -0.1503533 0.07171556 0.056692794 0.06605394 0.059230626
0.10617982 -0.14547533 0.124840245 -0.10311103 0.12861697 -0.14475197 0.046521172 -0.08959594
-0.1422613 0.06297599 -0.003513664 -0.14151338 0.027752638 0.061552152 0.062302306 0.010783777
0.044594646 0.09112826 -0.015620202 0.047915652 -0.0024181008 -0.11256842 0.06353094 0.15140443
-0.013710365 0.11454521 -0.13901764 0.0093315095 -0.13292699 -0.09948097 0.10860957 -0.14585249
-0.052544944 -0.00021842122 0.02773109 0.031266183 0.11659755 0.09165113 0.0041389465 -0.11999747
-0.052641742 -0.063547686 0.10939367 -0.101001725 0.07133366 -0.053749636 -0.09790708 -0.0026195496
-0.022372708 -0.02727817 0.08856718 -0.078044415 -0.1336993 -0.15214556 -0.05708036 0.06564054
-0.038367994 -0.15301095 -0.098627344 0.1090516 0.008247301 0.052369192 -0.14811306 0.050648794
0.13046388 -0.14266112 0.023665145 -0.0022446513 -0.12580141 -0.11614198 0.008976683 -0.13576506
-0.09216972 0.10514648 -0.1466225 0.13141362 0.085292384 -0.12228556 0.02720359 0.04223089
-0.09087349 -0.121952094 -0.060085274 -0.0990783 -0.12547849 -0.12125048 -0.09396462 -0.1343103
0.027546763 -0.07534344 0.13413607 -0.0009945184 0.055340677 0.07705033 0.05485037 -0.100831226
-0.015064999 -0.13381803 0.11684884 0.1387522 -0.11661685 -0.06619323 0.018423572 -0.13678083
00000000: 1847 f93c c267 fe3d 584f df3c 4897 a23d
00000010: 3ab4 843d 3ce5 6cbd 55bf b7bd c02b 85bb
00000020: fc78 763d 1cdf 09be 3c43 a2bd a380 16be
00000030: daea c93d 3028 b8bc 0e16 7bbd 5b81 aebd
00000040: 142c 5e3d 260b fe3d 8a02 9bbd 8865 fdbd
00000050: 6847 9e3d 38e7 823d fc7b 92bd 26af 0bbd
00000060: cb38 8abd 7d42 09be 4a0c f13d 06f3 f83d
00000070: 28df da3c 7a6f 4ebd 6233 fd3d d09d 14bc
00000080: e5f5 f1bd ec9d 043d 341f 8b3d 962e 77bd
00000090: 8056 eb3c ae06 ff3d a8d6 8c3c cec0 1cbd
000000a0: 83c0 0b3e 8f83 b2bd a6aa 07be ea0e a23d
000000b0: 1534 18be 17b6 81bd 04ec 5d3d 413f 91bd
000000c0: 53e9 13be af7a 173e 60c1 8fbc 2fbf c1bd
000000d0: 0806 cb3c f21e c03d 9639 17be 02b2 16bd
000000e0: 002d 0b3b a856 d8bc 804f ff3c 70bc 9f3d
000000f0: 9093 c1bc 54c1 14be 2c8f cdbd 74f4 f6bd
00000100: 2551 03be 9c80 9f3d 6d0e 0cbe a09e d7bb
00000110: b4a7 5a3d 08e8 593d 28af bd3c b418 5c3d
00000120: 02fd 78bd 8099 8b3b 361d ae3d 1d2a 1bbe
00000130: 4a2c c93d 0665 00be 000b 08ba 8c63 ecbd
00000140: 40b3 583c ee9a 94bd 308b a13c c020 64bb
00000150: c20c e93d 2863 10be c4a0 55bd 1c18 e6bd
00000160: 26c9 d13d 562a 9cbd a266 78bd b19d 183e
00000170: e074 efbb 3cc0 243d eb3a 063e 8662 d23d
00000180: a0dd 3e3d 7c28 28bd 7420 633d 9efd fb3d
00000190: 1c68 1abd 0ff0 133e 192b 83bd 4890 973d
000001a0: 846a 3cbd 50d1 21bd ca3a c23d fa9f 02bd
000001b0: b8da d0bd ee59 0ebe 4c27 e0bd d23a 04be
000001c0: 2c3f 183d 68b6 04be 3cb5 4d3d 3275 cabd
000001d0: 01fe 1b3e 79b9 dbbd 3cbc febc 8a28 fb3d
000001e0: 88e7 babd f223 cc3d c30b 95bd 689a e5bc
000001f0: 57e2 c5bd 50fb 643d 806c b93c eed0 ecbd
00000200: d236 13bd 7a32 17be e265 dfbd 5f41 163e
00000210: c4b0 f4bd 0030 10bc b85c bc3c f8f0 9c3d
00000220: cc3b b43d d691 cb3d 6818 1cbd 28f5 8b3c
00000230: a400 e0bd a440 a93d e79b eabd 3374 00be
00000240: c090 8e3d 2a8d dc3d cb1f 8dbd 37f6 19be
00000250: 9cdf 923d b436 683d 4a47 873d d09b 723d
00000260: ce74 d93d 7cf7 14be 3eac ff3d e02b d3bd
00000270: 2bb4 033e dc39 14be fc8c 3e3d 147e b7bd
00000280: f2ac 11be 8ef9 803d 8045 66bb e2e8 10be
00000290: 8059 e33c 1c1e 7c3d b430 7f3d 70ae 303c
000002a0: e0a8 363d 74a1 ba3d e0eb 7fbc 3443 443d
000002b0: 0079 1ebb 468a e6bd 821c 823d c309 1b3e
000002c0: 70a1 60bc ae96 ea3d a45a 0ebe 30e3 183c
000002d0: 031e 08be aebc cbbd b26e de3d 5b5a 15be
000002e0: 5e39 57bd 0008 65b9 502c e33c f810 003d
000002f0: b2ca ee3d 96b3 bb3d 00a0 873b 3cc1 f5bd
00000300: de9e 57bd 4a25 82bd ca09 e03d fed9 cebd
00000310: 6217 923d 9428 5cbd 8283 c8bd c0ac 2bbb
00000320: f846 b7bc 7876 dfbc b662 b53d c0d5 9fbd
00000330: 78e8 08be 0ccc 1bbe 18cd 69bd 8c6e 863d
00000340: c227 1dbd e7ae 1cbe 22fd c9bd 7256 df3d
00000350: b01f 073c 1481 563d f3aa 17be 1c75 4f3d
00000360: 5398 053e c215 12be 68dd c13c 001b 13bb
00000370: 16d2 00be d9db edbd f012 133c ff05 0bbe
00000380: 7ac3 bcbd 0a57 d73d 3524 16be 4b91 063e
00000390: c6ad ae3d da70 fabd 10da de3c 4cfa 2c3d
000003a0: e11b babd 05c2 f9bd fa1b 76bd 90e9 cabd
000003b0: 6f7d 00be 2c52 f8bd 8670 c0bd a488 09be
000003c0: c0a9 e13c a94d 9abd f75a 093e 805a 82ba
000003d0: e8ac 623d 90cc 9d3d c8aa 603d 9a80 cebd
000003e0: 30d3 76bc 9807 09be 724e ef3d 0f15 0e3e
000003f0: d1d4 eebd 5190 87bd 08ed 963c 4610 0cbe

sequential_3/dense_7/MatMul f4 [3, 128]
0.19870351 -0.17266753 -0.19591808 0.06273584 0.107112214 0.1895629 -0.18542552 -0.13972275
-0.0613496 -0.12877542 0.04884313 0.12371616 -0.18296838 -0.008571938 0.15586103 -0.06071122
-0.09503775 0.12853004 0.014159754 0.10302608 0.059050933 -0.09265975 -0.07997696 0.16824801
0.090084895 0.044470087 0.017348528 0.16119422 0.047738448 0.13373984 0.14767821 -0.12441887
0.03408912 0.084113464 0.041340068 -0.20078844 0.18299414 0.15751891 -0.000349015 -0.06625867
-0.1570103 0.19000529 -0.04717551 0.12440728 -0.045606747 0.038549438 -0.14399248 0.11934213
-0.057417527 0.06719412 -0.08862808 0.010548994 0.16193305 -0.20344219 0.15541752 -0.05780247
-0.12243192 -0.013004705 0.15179299 0.21180175 -0.15944475 -0.11547415 -0.09615325 0.013685226
-0.027349979 -0.015812337 0.17226239 -0.1343946 0.013822377 0.0821106 0.19664003 0.096823975
-0.04892473 0.16638495 -0.16530554 -0.0011375397 0.021122828 -0.04018615 0.027863443 0.029953003
0.083685264 -0.094030224 0.17313893 0.20493798 -0.1992851 0.16620786 -0.14977664 -0.12437433
0.10646121 -0.012091562 0.11361985 0.104247704 0.04811482 0.1294594 0.04673685 -0.19811347
-0.016670108 -0.10799225 0.15948777 0.1031151 -0.0965611 -0.1958071 -0.12773645 -0.0063575655
-0.11307655 0.12714522 0.096890196 0.1789309 -0.116329014 -0.10444792 -0.14948294 0.13010485
-0.07813583 -0.08078866 0.062790945 0.16794993 0.008748591 -0.118860096 -0.09083735 0.19055273
0.012382865 -0.034005895 0.004842028 0.05355741 0.023158297 -0.12979987 -0.017347261 -0.016147211
0.053672835 -0.0056783855 0.05133693 -0.100034446 -0.014473602 -0.021519348 0.19284575 0.15061446
0.0840603 -0.18378508 -0.20256598 0.15518557 0.004900053 0.05674891 -0.051663786 -0.21012473
0.13120688 -0.17203732 -0.17838815 0.18315314 0.034404293 -0.019624993 -0.023416638 0.09641461
-0.05111976 -0.035123944 0.054350987 -0.19813138 0.028405473 0.06166987 -0.18539771 0.18176599
0.13481097 -0.20794016 0.065038666 0.04607214 0.030934468 0.11580239 0.15926988 -0.029442862
0.20154111 -0.121096246 -0.0387522 0.06561066 0.014034539 0.19735314 -0.096728556 0.14385645
-0.12114477 0.11227174 0.17354713 0.19062988 0.0114007 0.1656345 0.023724064 0.02722232
0.096187964 0.08901076 0.19045575 -0.14840163 0.12707175 0.20932333 0.12902237 -0.11223597
-0.042282045 -0.06539279 0.13333614 0.18859024 -0.12982982 -0.052339092 -0.16163059 -0.06584394
-0.20625027 0.07327996 0.026389793 -0.017785922 0.17004965 0.00057178736 0.21079208 0.18565921
0.15004344 0.011121646 0.10126956 -0.10579727 -0.15149644 0.06265573 -0.058612585 0.0031863302
0.17660336 0.11684318 0.16813745 0.14136864 -0.01922676 0.16174586 0.12910263 0.014139235
-0.03599131 -0.041688472 0.03793873 -0.17862771 0.12980713 -0.17436247 -0.14921686 0.16754527
0.14369966 -0.16186678 0.09513201 0.02805391 -0.023029014 0.0045425743 0.070508406 0.09604482
0.025201336 -0.039035946 -0.19101992 0.014407784 -0.17849827 -0.16728759 -0.152008 -0.08848904
-0.17802694 0.039362356 -0.012195453 0.168839 -0.012476653 -0.12003744 0.064941004 0.09166114
00000000: ef78 4b3e c2cf 30be c09e 48be a67b 803d
00000010: a65d db3d c71c 423e 30e0 3dbe 7b13 0fbe
00000020: b849 7bbd b4dd 03be bc0f 483d e65e fd3d
00000030: 105c 3bbe 5071 0cbc 099a 1f3e 54ac 78bd
00000040: 27a3 c2bd 619d 033e 50fe 673c 56ff d23d
00000050: 64df 713d 65c4 bdbd f6ca a3bd 3549 2c3e
00000060: 6e7e b83d 4426 363d 801e 8e3c 1910 253e
00000070: 6489 433d 19f3 083e f538 173e 52cf febd
00000080: 08a1 0b3d ae43 ac3d 3454 293d 7c9b 4dbe
00000090: d162 3b3e a34c 213e 00fc b6b9 a0b2 87bd
000000a0: 4fc7 20be bf90 423e 1c3b 41bd 3ec9 fe3d
000000b0: 24ce 3abd 04e6 1d3d c472 13be a669 f43d
000000c0: a42e 6bbd 129d 893d a482 b5bd b0d5 2c3c
000000d0: c7d1 253e 2653 50be c525 1f3e 48c2 6cbd
000000e0: 96bd fabd b011 55bc 9f6f 1b3e 8fe2 583e
000000f0: 7c45 23be b67d ecbd ffeb c4bd 0038 603c
00000100: 100d e0bc e088 81bc 8d65 303e bd9e 09be
00000110: 4077 623c 9a29 a83d 015c 493e a64b c63d
00000120: 4c65 48bd d160 2a3e db45 29be 8019 95ba
00000130: c809 ad3c 3c9a 24bd e041 e43c 0060 f53c
00000140: 2e63 ab3d eb92 c0bd 554b 313e 43db 513e
00000150: 6511 4cbe 6532 2a3e 0c5f 19be f8b7 febd
00000160: 5608 da3d b01b 46bc 86b1 e83d d27f d53d
00000170: 0c14 453d 0191 043e 246f 3f3d 42de 4abe
00000180: c08f 88bc 0a2b ddbd c350 233e 022e d33d
00000190: d3c1 c5bd a881 48be 58cd 02be 2053 d0bb
000001a0: ae94 e7bd 5b32 023e 5e6e c63d a939 373e
000001b0: e83d eebd cbe8 d5bd 0e12 19be 353a 053e
000001c0: ae05 a0bd 8674 a5bd 8a98 803d 11fb 2b3e
000001d0: 4056 0f3c ec6c f3bd ef08 babd 4120 433e
000001e0: 80e1 4a3c c449 0bbd e0a9 9e3b 045f 5b3d
000001f0: 78b6 bd3c 42ea 04be d81b 8ebc 2847 84bc
00000200: 0cd8 5b3d c011 babb ac46 523d dcde ccbd
00000210: b022 6dbc 5849 b0bc 5b79 453e ad3a 1a3e
00000220: ce27 ac3d 2832 3cbe 756d 4fbe f7e8 1e3e
00000230: a090 a03b 8c71 683d 689d 53bd f02a 57be
00000240: 195b 063e 8d2a 30be 62ab 36be 7f8c 3b3e
00000250: 84eb 0c3d 98c4 a0bc 40d4 bfbc 0675 c53d
00000260: f462 51bd 20de 0fbd 249f 5e3d f4e2 4abe
00000270: 98b2 e83c 8c99 7c3d e6d8 3dbe dd20 3a3e
00000280: e30b 0a3e 44ee 54be fe32 853d 24b6 3c3d
00000290: 486a fd3c ce29 ed3d a517 233e 2832 f1bc
000002a0: cb60 4e3e 4f01 f8bd a0ba 1ebd e25e 863d
000002b0: 20f1 653c f116 4a3e 9f19 c6bd 1b4f 133e
000002c0: c01a f8bd baee e53d 57b6 313e 7b34 433e
000002d0: 00ca 3a3c 179c 293e f858 c23c 5801 df3c
000002e0: 32fe c43d 464b b63d d506 433e 99f6 17be
000002f0: 191f 023e db58 563e 711e 043e f9db e5bd
00000300: f02f 2dbd a8ec 85bd 4589 083e cd1d 413e
00000310: 1cf2 04be 8461 56bd 7d82 25be 30d9 86bd
00000320: 4533 53be ce13 963d 682f d83c c8b3 91bc
00000330: 7f21 2e3e 00e4 153a e1d9 573e 731d 3e3e
00000340: fda4 193e 9037 363c 6a66 cf3d 3dac d8bd
00000350: e221 1bbe a651 803d c013 70bd c0d1 503b
00000360: 83d7 343e 7a4b ef3d 392c 2c3e f1c2 103e
00000370: 7081 9dbc b5a0 253e 7b33 043e 40a8 673c
00000380: a06b 13bd 88c1 2abd a465 1b3d 2fea 36be
00000390: 29ec 043e 138c 32be 4ecc 18be fd90 2b3e
000003a0: 0126 133e 68c0 25be 92d4 c23d 50d1 e53c
000003b0: 58a7 bcbc e0d9 943b b666 903d 26b3 c43d
000003c0: 0873 ce3c 28e4 1fbd ba9a 43be a00e 6c3c
000003d0: 40c8 36be 704d 2bbe fca7 1bbe be39 b5bd
000003e0: b24c 36be 6c3a 213d 70cf 47bc 21e4 2c3e
000003f0: e06a 4cbc 30d6 f5bd caff 843d d6b8 bb3d
